result/film_tcn_n9_nc32_k12/latest_params.pt (torch, 501147 bytes, 69 tensors)

pre_film.0.0.weight f4 [16, 6]
00000000: 51bc 3cbe ab09 1dbe 08ec 09bd e7d4 74be
00000010: 4e7a b33e 3028 903e b54d 0bbe babf 95be
00000020: 9079 913e bce2 a93e c2d1 a0be be3a c8bd
00000030: b13e c2be 61a1 cdbc 006d a63e d41b 883d
00000040: b95f 82bd 1899 bc3e 465d 46be 25e3 6dbd
00000050: 2970 cbbe 3785 9dbe 2442 aa3e e70a 953e
00000060: 4eb0 adbe 9b11 3e3e 7dd6 79be 3ba1 8c3d
00000070: b2ff ac3d c1e8 cdbe 51ad b6be fc7c 52be
00000080: 78d8 7d3d 5138 97be f72b e13d 1a21 a8be
00000090: fe72 7a3e b5b8 433e e056 d23d 9847 af3d
000000a0: 83b5 5d3d 6470 b8be 415c debd 851f 00be
000000b0: de0e 67be 88de e3be b0c6 90bd 62e1 063d
000000c0: f0d3 b53e b00d 08be 47b9 c5be 4094 8abe
000000d0: 8eef c0be 35bc cdbd 551d c1be aaf1 143e
000000e0: 9077 bb3e 90d1 54be bd7f d73e 6f5e 80bd
000000f0: 2cd7 a5be 7631 273d 9c6a 6d3e 2bfe 2a3d
00000100: 52a2 ddba 3fb8 833e 61ea 52be a08f d43e
00000110: 9828 4e3d 95ad 943e 84cd 92be 1a50 9cbe
00000120: 11b0 a5be 4ea7 00be 4489 a93e 7ccf 5c3d
00000130: bf63 213e de9e 7c3e 6b64 a53e 1157 273e
00000140: fc94 ba3e c4c0 f53e bb93 5dbe e2e8 823d
00000150: 8ad7 693e 5789 98be 286b 183e 3756 df3e
00000160: 3fe7 a03e 405b de3c 783c 5bbe 0c59 c2be
00000170: 8ac5 943e 95b4 d0be e255 abbe cdb2 9e3d
-0.18431212 -0.1533572 -0.033672363 -0.23909341 0.3505425 0.2815566 -0.13603862 -0.29247838
0.28413057 0.33180797 -0.31410033 -0.09776829 -0.37938455 -0.025101366 0.32505035 0.06645933
-0.06365914 0.3683555 -0.19371518 -0.05807795 -0.3973401 -0.30765697 0.33253586 0.2910988
-0.33923572 0.18561403 -0.24398227 0.0686669 0.084472075 -0.4021664 -0.35679105 -0.2055549
0.06197402 -0.29535154 0.10994714 -0.32837754 0.24457929 0.19113429 0.10270476 0.08558577
0.05412818 -0.36023247 -0.1085744 -0.12512024 -0.22564265 -0.44505715 -0.07069147 0.032929786
0.35513258 -0.13286471 -0.38617918 -0.2706623 -0.37682766 -0.10045663 -0.3771769 0.14545313
0.36614656 -0.20783067 0.42089644 -0.06268012 -0.32390726 0.040818654 0.231852 0.0417463
-0.0016909337 0.25726506 -0.20597221 0.41515827 0.050331682 0.29038683 -0.2867242 -0.30529863
-0.3236089 -0.12563822 0.33112538 0.05390881 0.15760706 0.24669978 0.32303175 0.16341807
0.3644179 0.4799863 -0.21638386 0.06392075 0.22836128 -0.29792282 0.14884627 0.43620464
0.31426427 0.02714312 -0.21409786 -0.37958562 0.2905696 -0.40762773 -0.3346396 0.07748947

pre_film.0.0.bias f4 [16]
00000000: e1a4 5a3e 0739 76be 57b6 5e3e 5dd1 313d
00000010: d1fb 9ebe c9b6 b4bb a709 16be f12e 8bbe
00000020: eded 80be 6ccd a4be 0b48 e7bd e656 e9bd
00000030: 40f8 51be deff 13be 9234 ce3e f384 9d3d
0.21351959 -0.24045192 0.21749245 0.043412555 -0.31051496 -0.0055149538 -0.1465212 -0.2718425
-0.25181523 -0.32187974 -0.11293038 -0.11393528 -0.20504856 -0.14453074 0.40274483 0.07691374

pre_film.1.0.weight f4 [16, 16]
00000000: 383b 15be 029b 16be 4452 5a3d f7d2 9c3d
00000010: 5eb2 e6bd 42bd 383e 14ce 513e 53f5 05be
00000020: 0721 87be 3d64 193e affe 4f3d 0ca8 89bd
00000030: e6a5 cd3d 6c2a 0abe f6ae ed3d 21bd 8ebd
00000040: 1b93 8f3e 510c 13be 5151 713d befe 65be
00000050: 4c56 223d 247b 20be 3bf0 31be 17ab 18be
00000060: e9ce 5c3e da4d 8d3e c6c2 303d b869 f63d
00000070: 0e7e 22be 926f 0b3d f1dc 97bd a967 ba3d
00000080: c593 e83d 9c9a 7ebd 6faf e6bd 66cf 543e
00000090: 1e67 b23d 7a54 f63d 8be7 103d 8465 c1bd
000000a0: ad1f 19be 2e2f e53d 9959 09be 20d6 3dbe
000000b0: f6a4 b13d 3d14 3d3b 6ff6 4e3e e367 e8bd
000000c0: 0488 283e cd1c 42be a7bd acbc 2ed1 01be
000000d0: b92f d93d 0cd0 fb3d acd1 02be 0f8c 253e
000000e0: d923 443e 0a77 663e f664 b33d 2422 6bbe
000000f0: 80b5 d93d fb46 56bb 837f ee3d 3e0f 93be
00000100: f71c 22be a00e 1e3e 47f8 d1bd c4ea 1a3e
00000110: 8cc8 dd3d c2f9 1cbd 5055 e93d 77ac 363d
00000120: 5689 e93d 08a0 b53b f13d 89be ffd2 503e
00000130: e2af 8bbe 5848 7dbe 12cc abbd c7cf 69be
00000140: b562 8abd 4b18 2dbe ff4a 7abd 92c3 373e
00000150: 4c98 14bd 9809 12bd b96c 043e 29af 413e
00000160: 5173 9ebb fecc 0b3c bdf5 1d3c 1d54 13be
00000170: e303 c5bd d421 3fbe 9317 873e 4ddd 32be
00000180: 227d 1ebe 8de6 babc ab72 4abd caa8 73bc
00000190: 5118 783e e81d f1bd 90b6 58bd 97a4 0dbd
000001a0: 75cc 83be 799b 7a3d 9820 cabd e6f3 66be
000001b0: 032f 263a be82 09be 1564 4dbe 0a05 ecbd
000001c0: 5b99 7e3c 2c38 1e3d 4fd7 8b3e 7742 d83d
000001d0: 273a ae3c e9df 9cbe 4d9b aebd e792 20be
000001e0: cf11 073d 69a9 3abd 9afa 843d 54b0 84bd
000001f0: 10ea 463d 04a8 683e 1873 3b3e 85c8 953d
00000200: 8ce5 803e 844a 813e 4bac 91bd 5a3d cb3b
00000210: 143e f0bd 4e28 e5bd fdbb 243e 9f88 19be
00000220: be96 cf3d bd33 87bd 45e9 96bd 2dc8 23be
00000230: e769 f6bd 1172 52bc 5d93 e4bd c157 10bd
00000240: 2c15 12be 3b9e 6cbe 8ef6 9c3e d0af e23d
00000250: cdea 52be 685a 6ebd cf88 08be 2845 c7be
00000260: b562 463c 60c9 283e ccc8 443d e4c3 8dbe
00000270: a257 0fbe 30cc b4bd fea3 95bd 653a 063d
00000280: b953 743e 33f6 a9bd eaa1 37bd 4f6b de3d
00000290: 463d 163e be44 b13d e259 c63d 329b 133d
000002a0: 4d64 8b3e 5d32 973d 2736 623d 80f0 16be
000002b0: 587e 5abe 6128 b4bd d0d3 92be cc52 de3d
000002c0: c6bc 5cbd 0569 e5bd 017b 03be fed3 a23d
000002d0: 0d79 1ebe d63b a5bc 93ec 863e 014e 47be
000002e0: 129c 21be e05e efbc 42cd 05be 7ce1 1c3d
000002f0: 7e33 b7bd c71d 50be 85b7 6d3e 5420 20be
00000300: 7340 93bd aec5 033e c93a 3dbe 1357 6b3e
00000310: 78f7 8e3d d7fa e63d ff09 3abe 9534 443e
00000320: 3c12 ac3d 2f57 cc3c 2833 e63b 0a71 8cbc
00000330: 035a 5b3e 614f c5bd 4d2b 883d 4e93 ccbd
00000340: 4c4a 083e 1b72 7bbe 2d26 e0bc c4af 41be
00000350: a4c9 303d 7a23 be3d 60b8 393e 8376 a03e
00000360: 0907 3d3e 24cc 953c 6813 88bd 3a0e 983c
00000370: f773 5a3e 2583 42be 11e4 45be 78bb 163e
00000380: cf1b 693c 42f8 3e3c 3e97 93bd c439 c1bd
00000390: 004d 5f3e 077c fa3d c1d4 af3d ddac 9cbe
000003a0: 9fe0 0abd 85d2 063c 9a9f 39be f46b e33d
000003b0: 81b8 4abe be6a 07bb d4f4 813d 711f b23b
000003c0: c048 673e 271f c3bd e320 183d 2905 8c3d
000003d0: 6f41 023e b998 853e 0a06 ea3d 3232 f63d
000003e0: 3450 b13d 4c57 00be 3604 4fbe 641c 16be
000003f0: e3a5 9d3d 5a50 9cbd 4e08 6bbe 7385 873e
-0.14573371 -0.14707568 0.05330111 0.07657426 -0.112644896 0.18040946 0.20488769 -0.13081865
-0.26392385 0.14979644 0.050779995 -0.067215055 0.10041408 -0.13492745 0.11605637 -0.06969667
0.2804192 -0.14360167 0.05891544 -0.22460458 0.03963308 -0.15671974 -0.17376797 -0.14909016
0.21563305 0.2759846 0.0431545 0.12031883 -0.15868399 0.03404195 -0.07415188 0.09101803
0.1135631 -0.062159166 -0.1126393 0.20782241 0.08711074 0.120278314 0.035377067 -0.09443191
-0.1495349 0.111906394 -0.13413085 -0.18538713 0.08674042 0.0028851174 0.20211194 -0.1134794
0.16458136 -0.18956299 -0.021086527 -0.12677452 0.106048055 0.12295541 -0.12775296 0.1616671
0.191543 0.22506347 0.08759491 -0.22962242 0.106303215 -0.0032696116 0.11645415 -0.28722566
-0.15831362 0.15435266 -0.10252433 0.15128618 0.10829267 -0.038324125 0.11393225 0.04459807
0.11403148 0.005542759 -0.2680507 0.20392989 -0.27282625 -0.24734628 -0.08388533 -0.22833167
-0.06757108 -0.16903798 -0.061106678 0.17945698 -0.036278054 -0.03565368 0.129321 0.18914475
-0.004835524 0.008532761 0.009641108 -0.14387555 -0.09619882 -0.18665248 0.26385173 -0.17467232
-0.15477422 -0.022815013 -0.049425762 -0.014871785 0.24228026 -0.11773282 -0.05290848 -0.034580793
-0.25741926 0.061183427 -0.09869498 -0.22553977 0.0006339403 -0.1342878 -0.2005771 -0.115243986
0.0155394925 0.03862779 0.27312705 0.10559552 0.021267964 -0.3063958 -0.08525715 -0.15681039
0.032975968 -0.04557172 0.06493111 -0.064789444 0.048563063 0.22720343 0.18305624 0.07313637
0.2517513 0.25252163 -0.071129404 0.006202382 -0.117305905 -0.11189328 0.16087337 -0.14993523
0.10136174 -0.06601665 -0.073687114 -0.1599433 -0.12031918 -0.012844578 -0.1116092 -0.03523994
-0.14265889 -0.23107235 0.30656856 0.1106869 -0.20597382 -0.058191687 -0.13333438 -0.3891995
0.0121084945 0.16483068 0.048043057 -0.27688515 -0.13998273 -0.08828008 -0.0730667 0.032770533
0.23860063 -0.08298912 -0.044832148 0.10860311 0.14671811 0.0865569 0.096851125 0.036036678
0.2722496 0.07382653 0.055227425 -0.14740181 -0.21337259 -0.08796764 -0.28677225 0.10855636
-0.053890966 -0.112016715 -0.12839891 0.079505906 -0.15475865 -0.020170134 0.26352367 -0.1946335
-0.15782192 -0.029220045 -0.13066581 0.038300976 -0.08945368 -0.20323859 0.23214538 -0.15637332
-0.07190027 0.12868378 -0.18479456 0.22982435 0.06980795 0.11278313 -0.18167876 0.19160683
0.084019154 0.024943916 0.0070251413 -0.017143745 0.21421055 -0.09634281 0.06648884 -0.09989034
0.13309592 -0.24555247 -0.027361954 -0.18914706 0.04316105 0.0928411 0.1813674 0.31340417
0.18459715 0.018285818 -0.066443264 0.018561471 0.213333 -0.1899534 -0.19325282 0.14719951
0.0142278215 0.011655869 -0.072065815 -0.09434846 0.21806717 0.122306876 0.085855015 -0.30600634
-0.03390562 0.008228903 -0.1812729 0.11104575 -0.19796945 -0.0020662989 0.063455254 0.005435877
0.22586346 -0.09527426 0.03714074 0.06836922 0.12720273 0.2609308 0.11426933 0.12021293
0.08657876 -0.12533301 -0.2021645 -0.14659268 0.07697656 -0.07632513 -0.22952387 0.26469

pre_film.1.0.bias f4 [16]
00000000: c97a bc3c 1d15 e0bd e8b4 14be e12d 29bc
00000010: 8f7c 0cbc 6aab 6dbd 9c6b 223e d3c2 84bd
00000020: 1e6c babb d37f 1c3e 8a59 6abd 2be5 0cbe
00000030: 3148 d9bc 38cb 50bd 2acb 213e 8c0e 4c3c
0.023007767 -0.10941527 -0.14522135 -0.01032588 -0.008574619 -0.0580248 0.15861362 -0.06482472
-0.005689158 0.15283136 -0.057214297 -0.13759296 -0.026523681 -0.050975055 0.15800157 0.01245464

pre_film.2.weight f4 [16, 16]
00000000: 0fda 293e 950b 383e ee27 acbc 804b cebd
00000010: 9d37 25bc 424a dabc 0b78 88bc 13bb ea3d
00000020: 4473 a6bd 662d 9c3d b4a5 91be ef60 8ebd
00000030: 2e1b 3ebe 93b0 febd 8352 cb3d 5dd4 1d3e
00000040: 5f14 833d 305b 8bbd 929a 93be f6aa 47be
00000050: a59e 24be 6d66 3c3c f387 a8bd fec3 b83d
00000060: 8a7f 32be 1c5e 6ebd 5c94 473d 92c6 833e
00000070: 627e 933e d387 b83d 6c15 21be 748e fbbc
00000080: 8f0d cdbd ffe0 62bd 2fb6 683e f4df 433e
00000090: 882a e73d 43c4 4abe 2069 383d 1e62 a63e
000000a0: 74dc 1a3e 2b1b 063e 74b1 bb3e 0c21 7fbc
000000b0: a1d8 d93d 5cf8 183e 8ed2 0ebe b60c 553d
000000c0: 7089 423d 0c6d bd3c 9c31 9cbe f3cf 14bd
000000d0: 9bea 5fbe 187a 0d3e f7c9 4ebd c1c4 743d
000000e0: 1171 07be 19af e63d b981 183e d21d aebd
000000f0: 6137 c6bc ad97 4bbe 907e 3abe ab75 483e
00000100: 0f1f dcba 2a4d 37be 2085 9e3e d15f 89bd
00000110: 16b4 543e 86c6 07bb 94d8 dabd 9bc0 9ebe
00000120: 6e4b e8bd 52ad c0bd f4a2 66be 9950 ef3c
00000130: 4f67 b5bd ac84 a23c 7612 903e 66f5 a63c
00000140: 0029 6fb9 2eba a9bd fbac 273e b4db 0f3e
00000150: 93ec 19be 056f 963d 73e5 1cbc a555 153e
00000160: dbc7 143d acee 80be 0408 273d 6668 a13d
00000170: 3c1f be3d cc55 0d3e 87fc 7c3c 0d0b 8fbe
00000180: 8974 8cbd f3d6 11be bde2 4abe 7009 04bd
00000190: 1756 823e 5766 813d 623a 393e 723c 5cbe
000001a0: 519a 22be bb02 45be d951 0f3e f8e1 35be
000001b0: e5aa 15be 2778 653c 7b52 bc3e 196e 083e
000001c0: 64a5 30be 06b3 ecb9 5096 343e 550f 0fbc
000001d0: e973 11be ec6d 7cbe a998 92bd 5e7e 93bd
000001e0: 73de 8abe 638c e4bd 556d 113d 215b 79be
000001f0: 3067 46bd 8008 2b3e 9dbe c0bd faf4 61be
00000200: cf46 68bd bbf0 dc3c aaa1 44be 66f7 963e
00000210: 6c99 8dbe 4db9 2dbd 1b8e 5ebe 967e 7c3d
00000220: 4998 1c3e d12c 80bc 706e e7bd 64bf 023e
00000230: bca8 86bd a5dd 353c fea3 9c3d 484d e33d
00000240: 7e55 f6bd 9f32 fa3c 8859 80bd 7227 2bbe
00000250: e554 42be f6be 693e ee0c 233e 56ca a93d
00000260: 68bb 9abd 5932 00bc 659e 9bbc 41fe 913e
00000270: f304 e7bd 4da0 c0bc 4d18 febd 0523 0a3e
00000280: 86a2 8f3d 4f30 76be 0935 f23d a993 0f3e
00000290: 1ee4 173e 39b5 603e f5c3 183d b9b9 e2bd
000002a0: 08c5 d7bd 47e0 c53c a546 9e3d 9175 413e
000002b0: 7001 d23d caac 1bbe 1ee7 49bd bd09 523d
000002c0: a0e1 e93d d78d 00bc 57dd 3d3e 9063 eebd
000002d0: fa0c 49be d9d8 113e ecb3 7dbd 79eb 6f3d
000002e0: e38b 10be d63a 61be 3574 393e 50a5 53be
000002f0: 22c0 a33d 681d a93d 908b 26be 0262 383e
00000300: d261 403e 8b41 323d 4c73 243d e47b 47be
00000310: 89cb 7b3e 2ade a9bc 1ea7 38bd 4e35 06be
00000320: a7ac 54bd 0b1f e63a 5b9b 173e eb80 efbd
00000330: 5221 373d 494b 99be 838f 123e 5476 bfbd
00000340: 8e2a 40be 6e24 163e 6b9a 693e 5a91 f33d
00000350: abb5 15be 2f65 72be 6cb8 21be 5d83 fa3d
00000360: bb0d 453d cbda fe3d 619a 87be 8293 5ebd
00000370: dd7f 8cbd 491b 20bd eeec 5ebe bb31 85be
00000380: 077a fb3c 1c14 70be 4821 903d b643 383d
00000390: 964d 5abd 5cb0 803d 2afb eabd b346 8dbc
000003a0: 8a85 433d b103 95be f0ff 2f3e 8733 803e
000003b0: d372 9f3d 0d93 23bd 6be8 343e 3ace 9d3d
000003c0: 341e 813d 71a0 1a3e 03dc d5bd c510 6ebe
000003d0: 46c1 493e 7c4d 423e 8af8 e9bd 10d3 193e
000003e0: 2cc1 2abe e441 ff3d 4029 333e 855b 73be
000003f0: c9ac d33d 849f 853e e973 17be 5b16 da3d
0.16587089 0.17973168 -0.021015134 -0.10072994 -0.01008406 -0.026646737 -0.016658803 0.11461463
-0.08127454 0.076258466 -0.28446734 -0.06952082 -0.18565056 -0.124360226 0.09927847 0.15413041
0.0640037 -0.06804502 -0.28828865 -0.1949881 -0.16076143 0.01149903 -0.08229055 0.090217575
-0.17431465 -0.05819522 0.04872547 0.25737435 0.2880736 0.090102814 -0.15730828 -0.030707575
-0.10012352 -0.055390354 0.22725748 0.191284 0.11287409 -0.1980143 0.04502213 0.32496732
0.15123159 0.13096301 0.36658823 -0.015571844 0.10637022 0.14938492 -0.13947508 0.052014075
0.047494352 0.023123287 -0.305066 -0.03633113 -0.21866839 0.13816106 -0.050485577 0.05975795
-0.13226725 0.11263866 0.14893235 -0.085017815 -0.024196329 -0.19882078 -0.18212342 0.19576137
-0.0016793924 -0.1790053 0.3096094 -0.06707729 0.20771822 -0.0020717694 -0.1068584 -0.3100632
-0.11342512 -0.09408058 -0.22523099 0.029213237 -0.08857595 0.019838654 0.28139085 0.020380687
-0.0002280809 -0.08287464 0.1637458 0.14048654 -0.15031652 0.07345394 -0.009576189 0.14583452
0.03632341 -0.25182092 0.04077913 0.078812405 0.09283301 0.1380226 0.015441067 -0.2793812
-0.06858165 -0.14242153 -0.19813056 -0.032235563 0.25456306 0.06318348 0.18088678 -0.21507433
-0.1587918 -0.19239323 0.13996066 -0.17761981 -0.14615972 0.014005697 0.36781678 0.13323249
-0.17250592 -0.0004514681 0.17635465 -0.008731683 -0.14204372 -0.24651307 -0.07158024 -0.07201837
-0.2712284 -0.11159589 0.035504658 -0.24351169 -0.04843825 0.16702461 -0.094113566 -0.22066107
-0.056708153 0.026970258 -0.19202295 0.29485625 -0.27656114 -0.042413045 -0.21733896 0.06164416
0.15292467 -0.01564637 -0.11300361 0.12768322 -0.06575152 0.011100207 0.076484665 0.110987246
-0.12028025 0.030541716 -0.06267077 -0.16714266 -0.18977697 0.22826752 0.15922901 0.08290546
-0.07555276 -0.007824504 -0.018996427 0.28514293 -0.11280241 -0.023513937 -0.12406979 0.13489921
0.07013421 -0.24041866 0.11826522 0.14021172 0.14833114 0.21944131 0.037296254 -0.1107058
-0.105356276 0.024154795 0.07728318 0.18892504 0.102541804 -0.15202633 -0.049292676 0.05127882
0.11419988 -0.007846317 0.18541466 -0.11640084 -0.19633856 0.14242877 -0.061939165 0.058574174
-0.14115863 -0.219951 0.18110736 -0.2066853 0.07995631 0.08257562 -0.16264176 0.18006137
0.18787315 0.043519538 0.04014902 -0.19480854 0.24589361 -0.020735819 -0.04508125 -0.13106272
-0.051922467 0.0017556859 0.14805357 -0.11694511 0.04470951 -0.2994025 0.14312558 -0.09348741
-0.18766233 0.14662334 0.22812812 0.11892958 -0.14620082 -0.23671411 -0.15793008 0.12232087
0.048108798 0.12444075 -0.2648497 -0.054339893 -0.068603255 -0.03908852 -0.21770069 -0.26014504
0.030697836 -0.23445171 0.07037598 0.04498645 -0.053296648 0.06283638 -0.11473687 -0.017245626
0.047734775 -0.2910438 0.17187476 0.25039312 0.07785573 -0.03993516 0.17666785 0.0770535
0.06304589 0.15100266 -0.104423545 -0.23248585 0.19702634 0.1897487 -0.11424358 0.1502192
-0.16675252 0.124637395 0.17496204 -0.2376538 0.103356905 0.26098263 -0.1479031 0.10648795

pre_film.2.bias f4 [16]
00000000: 58c3 9cbd bf90 13be 6203 3cbe 8ee8 0a3e
00000010: d8af 643e 6921 cf3d 2bc5 26bd acb3 ae3d
00000020: bc06 04be 1a35 4f3e 97aa 023d b533 64bd
00000030: c4d5 233d 7155 bfbd b335 4c3d e757 11be
-0.07654446 -0.14410685 -0.18360665 0.13565275 0.22332704 0.10113794 -0.040715378 0.085303634
-0.12893194 0.202351 0.03190097 -0.055713374 0.039998785 -0.093424685 0.0498559 -0.14193688

blocks.0.conv1.weight f4 [32, 1, 12]
00000000: 9cbd 48be 4a29 26be c9f3 eebd b2cf 053e
00000010: 3acb b23e 9222 62be 132b 2e3e d164 683e
00000020: 8f8e 4ebe fa3d a83d 7e83 3abe be3b 24bc
00000030: c1b2 17be 6c04 4fbe 32a1 ae3d 73cd 04be
00000040: 4f5b 373d 374b 673e 523b bf3c 1fb7 86be
00000050: 70c1 8ebd 5d11 8abe cea1 13be 20cc f23d
00000060: 5733 f6bd 1cf0 073d 9d8b 80be 723f 64be
00000070: faf8 8b3e 5d73 413e 7909 9d3e 44ce e83d
00000080: f51e 95bd 4e9e 703d 3ec0 acbe 341f 173e
00000090: c3da 98be dcec 08be eebf 48be 25e3 513d
000000a0: 55a6 53be 56fc e9bd 6913 8b3d 3d53 563e
000000b0: 3ecd b93b cc05 e1bd 7ad7 643e d2a9 b23d
000000c0: 20ad 2bbe 2132 ea3d 4644 49be 9c96 80bd
000000d0: 0dde a13e ddf6 b03e 0c34 4fbd 8ede cd3d
000000e0: efa9 dbbd 068e 6cbc 1a51 713d b06e 58be
000000f0: a710 233d 40f3 283e bf23 1c3e 9120 8c3e
00000100: 4753 733e 0136 423e 2b55 cfbc b697 073d
00000110: 4400 483e 3fff 253e f370 813e 89e2 773e
00000120: 1bf8 50be 71ae 99bd 7358 19be 7440 223e
00000130: b534 933e 59ed 213e 440d 83be e47d e8bb
00000140: e828 8bbd e782 4ebe 06d1 883d 87c2 c6be
00000150: bf10 92bd f17c 743d 99b8 01bc d55b a23e
00000160: bb50 99bd cf44 2c3e 3c5f ad3e 7d9f 7c3e
00000170: fcea a2bd d833 603e eafe da3d 32e8 763c
00000180: f408 953e 0b78 363e b1d6 15be 1044 243e
00000190: 9e7c b13d 78a2 24bb e2bf fd3b 75ba 58be
000001a0: 8c6b 913d 309b b13c bf08 ffbd fea1 983e
000001b0: 7924 9f3e 7a0c 9d3e befe ef3c 7766 1abd
000001c0: d728 143e 3497 92bd 7b7e 3fbe 5b52 cdbd
000001d0: 216d 54bd 4c55 fabc 3f13 a03c 5ef1 21be
000001e0: 9770 efbd edbe a1bd 0a91 40bd 5fc2 b53d
000001f0: 6837 00be 97f7 8bbd b201 83be 8881 a3be
00000200: 3464 1cbe c707 94be 6070 563e 7a83 88be
00000210: b4a4 5d3e 591e 4cbe 4dbf 98be 74bd 57bd
00000220: dac4 9e3d c1d5 833c 9c92 20be 96ca c23d
00000230: 0f41 2b3e eaad 973d 97cf 823e 92b9 153e
00000240: b17b 3bbe 8743 afbd 7c58 bd3d d692 603e
00000250: f0ab 093d 6aea 5dbe df1b 753d 0943 6e3e
00000260: a028 a2bd c322 72be 1aa2 673e 75a5 09bf
00000270: 7272 dcbe b89f 4ebd a55a 1dbe 48ea e0bd
00000280: 463a 0fbe 9495 833d 174c bf3d c02f 273e
00000290: dfa7 e3bd f417 a8bd c9a3 943e dbe3 21bc
000002a0: 04fc 1dbe 1652 c4bd f77d 6cbd 4d0a 30be
000002b0: 4a34 81be 3cb3 823e 6b43 cdbd cbfe 6cbe
000002c0: 662c 403d aa43 5fbe e1a9 8f3e 2d06 4c3e
000002d0: b02a 9c3d fc44 20be d807 053e 12c4 453e
000002e0: 2a9b 913d ba59 14be 60d1 97be e7bb b73a
000002f0: f30c 1bbe 9af1 42be 72bb 653e 96c4 003e
00000300: 1c9a 503e 58e0 ecbd b8b4 b73e 4784 74bd
00000310: 89b1 93be e434 273e 7b7a b1bd 16e6 2b3d
00000320: f108 74be 5d28 283e e39e 2d3e 4b0b 023c
00000330: 85f9 9e3e 0fe2 4dbe 4906 8cbd fe7b 2e3e
00000340: c0dd 6f3e 7330 3cbe dd76 903d 794f 9cbe
00000350: 4f8b ebbc dd9c 1bbd 2df5 6fbe 9e20 b73d
00000360: c2ca 9bbd 60af 053e 0e1c 50be 3cbe a9bd
00000370: 6a7d 6e3e 8f4e a93e 3caa 723e 8369 72be
00000380: ef56 57be 2932 e1bd 26bb 28bd 815a 81be
00000390: abee 953e c8e9 883e c87e 163e d691 86be
000003a0: a361 73be 4b47 923d 855f 85be 74be 0cbe
000003b0: 7468 0abe 91d1 d6bd 06b0 5e3e 16db 5e3e
000003c0: 368b a63c d22a 9ebd 7c96 94be 687a 163e
000003d0: ad1d 92be 4985 fd3c cea7 5c3e e1e8 0a3e
000003e0: 14f4 093e 607f 533d 9875 8c3d b7c0 7bbe
000003f0: e808 283e 6061 c5be fe8f 0fbe 32e4 81be
-0.1960358 -0.16226688 -0.11667592 0.1306751 0.34920675 -0.220835 0.17008619 0.22694708
-0.2017157 0.08214946 -0.18214223 -0.010024009 -0.14814283 -0.2021653 0.08526839 -0.12968998
0.044764813 0.22587286 0.023343716 -0.26311585 -0.06970489 -0.26966372 -0.14417192 0.1185534
-0.12021511 0.03318797 -0.25106516 -0.22289827 0.27338392 0.18891664 0.3067129 0.11367467
-0.07281295 0.05874472 -0.3374042 0.14757997 -0.29854402 -0.13371605 -0.19604465 0.051242013
-0.2066892 -0.114250824 0.067908116 0.2093019 0.0056702187 -0.10987434 0.22347823 0.08723797
-0.1676526 0.114353426 -0.1965495 -0.062787265 0.31614724 0.34563342 -0.050586745 0.100522146
-0.10725772 -0.014438158 0.058915235 -0.21135974 0.039810803 0.16499043 0.15248011 0.27368596
0.23762237 0.18965913 -0.025309166 0.033103667 0.19531351 0.1621065 0.25281486 0.2420751
-0.20407145 -0.07503975 -0.14975147 0.158449 0.2875115 0.15813197 -0.25596058 -0.0070950855
-0.067949116 -0.20167123 0.06680493 -0.38820288 -0.071321 0.059689466 -0.007917547 0.31710687
-0.07486101 0.16823123 0.3386172 0.24670215 -0.07954976 0.21894777 0.10693152 0.015070008
0.29108393 0.1781923 -0.1463268 0.16041589 0.08666347 -0.0025121253 0.0077438215 -0.21164878
0.07100591 0.021680444 -0.1245284 0.2981109 0.31082514 0.3067358 0.029296275 -0.037695374
0.14468704 -0.07157746 -0.18700592 -0.10025474 -0.051861886 -0.03055825 0.019540427 -0.1581473
-0.11691397 -0.07897744 -0.04701332 0.08874964 -0.12521136 -0.068343334 -0.2558723 -0.31934762
-0.152726 -0.28912184 0.20941305 -0.2666281 0.2164486 -0.19933452 -0.2983345 -0.05267091
0.0775239 0.016093137 -0.15680927 0.095112965 0.16724037 0.07406218 0.25549003 0.1462157
-0.18308903 -0.08557802 0.09245393 0.21931013 0.033611238 -0.21671453 0.059841033 0.2326776
-0.07917905 -0.23646073 0.2262043 -0.5376809 -0.43056065 -0.05044529 -0.1536661 -0.109821856
-0.13987073 0.06425014 0.09340685 0.16326809 -0.11116003 -0.08207694 0.29031208 -0.009880985
-0.15428168 -0.09585969 -0.057737317 -0.1719143 -0.25235206 0.2552737 -0.100226246 -0.23144071
0.04691734 -0.21803156 0.28059295 0.19924231 0.076253295 -0.15651315 0.12991273 0.19313076
0.07109673 -0.14487353 -0.29651928 0.0014017791 -0.15141658 -0.19037476 0.22434786 0.12574992
0.20371288 -0.11566228 0.35880065 -0.059696462 -0.28846386 0.1632877 -0.086659394 0.041967474
-0.23831536 0.16421647 0.16955142 0.007937263 0.31049743 -0.20105766 -0.06837136 0.17039487
0.23424435 -0.18377857 0.07053921 -0.30529383 -0.028752951 -0.037991393 -0.23433371 0.08941768
-0.07607032 0.13055182 -0.20323202 -0.082882375 0.23290029 0.33067748 0.23697752 -0.23673062
-0.21029256 -0.109958954 -0.041194104 -0.25264362 0.29283652 0.2674086 0.146968 -0.2628314
-0.23767714 0.07142504 -0.26049438 -0.13744527 -0.13516408 -0.1048919 0.21746835 0.21763262
0.020330053 -0.07723011 -0.2902106 0.14695132 -0.28538266 0.030947344 0.21548387 0.13565399
0.13472015 0.051635146 0.06858367 -0.24585234 0.16409647 -0.38550854 -0.14019772 -0.25369412

blocks.0.affine.bn.running_mean f4 [32]
00000000: 6bcf ea34 74e2 8935 70bd 2033 f1e4 0133
00000010: a7d4 a334 2bf6 30b6 8081 ce35 7723 c3b5
00000020: 4dad 86b5 1753 7133 1d51 0136 ebd1 93b5
00000030: 6c88 b135 f91f 8634 934c 93b1 17ef ddb3
00000040: f58f 1cb5 9fdd cd34 25dc 8d35 45e7 2cb5
00000050: 413e 7734 067b 9934 3193 0eb5 5a42 91b5
00000060: fbbd 6cb5 4f6a 1736 c6c5 c1b5 1b94 b335
00000070: 9597 ea33 24de 4e35 123a 3a35 9aa3 8a35
4.3736813e-07 1.0273202e-06 3.7425195e-08 3.0243374e-08 3.051584e-07 -2.6369332e-06 1.5385885e-06 -1.4538954e-06
-1.0034215e-06 5.6187755e-08 1.9269712e-06 -1.1013448e-06 1.3227232e-06 2.4982708e-07 -4.2869686e-09 -1.03346046e-07
-5.8324014e-07 3.8345476e-07 1.0569389e-06 -6.4411535e-07 2.3026315e-07 2.8587982e-07 -5.3113314e-07 -1.0822653e-06
-8.819331e-07 2.2562633e-06 -1.443718e-06 1.3379644e-06 1.0924047e-07 7.706424e-07 6.9374903e-07 1.0329416e-06

blocks.0.affine.bn.running_var f4 [32]
00000000: df2b 6e39 3542 843b 891f 443a 62d4 983b
00000010: 950c 303a 938b f13c 2bce 503b ee0a 6a3c
00000020: 20cc 2f3b d7ee 5c3b 87ab 8d3c 23f4 323b
00000030: 55f6 e13a 6c07 9a3b 76d0 8f3b b565 e839
00000040: 858c 243a e9f2 be3a dd6e b93a 9ad7 483a
00000050: 36c0 c639 cfa1 a83b a9e6 c03b 167e be3b
00000060: 97cb 913a f862 653c 0fd9 923c 27b0 ae3b
00000070: 1ec0 7d37 ef37 c63a 64a0 eb3a b6cc 8d3b
0.00022713792 0.004036213 0.0007481506 0.00466399 0.0006715742 0.0294855 0.0031861167 0.014284832
0.002682455 0.0033711696 0.017293705 0.0027306161 0.001723955 0.004700592 0.004388864 0.00044326266
0.00062770426 0.0014568242 0.001414742 0.00076615217 0.0003790871 0.005146242 0.005886872 0.0058133705
0.0011123297 0.014000647 0.017925767 0.0053310576 1.5124706e-05 0.0015122871 0.0017976877 0.004327382

blocks.0.affine.adaptor.weight f4 [64, 16]
00000000: 71a5 823e d76a 6bbe a1eb 9cbc c755 f0bc
00000010: cf1c bbbd 564f 13be 1496 d23e 9956 843d
00000020: 7f8a 153e 2d48 80be 07c7 86be 6b81 d23a
00000030: 2b66 79bd f921 fc3d a983 8bb8 59de e83d
00000040: 520f 063e 0f71 a0bd 2654 853d 4792 babd
00000050: cde2 a73c 190d 98bd c0fd e63d f1d6 c23d
00000060: 7d56 57be 8827 2f3e 6c31 e2ba 4004 553e
00000070: 381e 10bd 2f74 1e3e d799 703d 0533 cb3d
00000080: fa10 07be 51bf 65bd 26ff 063e 86f7 343d
00000090: 8c9e 8a3e 7e28 e83b e218 833d 81a3 eabd
000000a0: d197 8c3d 309b 13be 533b 68be 06fd 21bd
000000b0: a59a 29be 2eb5 8fbe f038 863d 9763 843e
000000c0: d438 5bbe 56ad d1bd a295 3fbe b17f ecbd
000000d0: e3f6 e7bd e637 c5bd 4582 4a3e 12ba 193e
000000e0: 9e5a 513e b8ee fcbb da81 5b3d f490 2cbc
000000f0: fafd 613d 728e b93c 7f23 843d 3118 11be
00000100: fbad b13c be0b 06be dfee 0dbe c160 6cbe
00000110: 811f c63d eaf6 c23b 6869 57bd ecb4 643d
00000120: 5acd 863e a8da f53d b88b 21be 29cb 68bc
00000130: eb2a 263d 4236 64be 4025 4f3e a643 193c
00000140: c463 8dbc 058a 613e 39b2 fd3d 4fa3 403e
00000150: e0d7 c8bd dfd3 393e f8f4 483d 0703 5e3e
00000160: 6ec1 513e c675 6ebe 6e4c e2bd ca4d 43be
00000170: 62cc bb3c f84d 5a3e 0245 31be efea 21be
00000180: e802 263e 5bfc 033e c225 e23d e9f3 193e
00000190: 11e8 033d 5797 7d3d 19bc 2cbe 099d f4bd
000001a0: d7c3 1c3e f902 f0bd adf2 3b3e e155 39bd
000001b0: 37c1 0bbe 93ce fe39 04d5 aabd 42d8 093e
000001c0: fc2a ae3d 833f 773d 8bd7 21bd 3bb5 283d
000001d0: 8134 ef3d 6170 ce3d 5a38 353e 285b f23c
000001e0: b863 3c3c 925e 00be 08b1 273c cfdf 543e
000001f0: df21 033e a525 373e 0355 e83c f2f8 1e3e
00000200: 1a77 0d3e a1b9 e2bd a6ad cd3d fd56 5fbe
00000210: c4b5 febc dd2b e2bd 480a 863d 44b3 ca3d
00000220: fcf5 f93d b23f 2e3e 39be e0bd 84be 22be
00000230: 95b3 2f3e 4ec0 1d3e bb17 fbbd 6e83 81bd
00000240: 92e6 ff3d 31f2 503d 8dde 3cbe eae1 093e
00000250: 33c5 3bbe c6f9 a8bd 1e5a b8bd 226d d9bc
00000260: aed4 93be 11ac 3bbd 49f6 29bd 4525 443e
00000270: 6f1b 67be be62 673e a56e 1f3e 9b27 05bd
00000280: c52f b0bd e131 3e3d 3334 22be 29bb b4bd
00000290: 6cda 383e 7fbb 8a3e a7fd da3d dd0c 2b3e
000002a0: fbac 843d b2fd bf3d 1559 313e 6e0f 41be
000002b0: e918 f8bc 6df1 d3bd 6d82 503e 8428 603e
000002c0: 8c3e 86bd 734c 65be 4f57 41bc 731d 3dbe
000002d0: 570b 41be f823 673e 622a 9dbd cece 8ebd
000002e0: f593 c9bd 8aeb 713e aa37 473e 9478 5fbd
000002f0: a025 183c 57e0 bb3d ed84 edbd 0306 403d
00000300: d7cd 8c3e 04fe a43d d8a1 30be 22b6 96bd
00000310: 393d 36bd 784d 923d 54e4 e03d f7fe 0fbd
00000320: 449b cdbd 007b 343e 7c99 aebd 3c12 63be
00000330: d323 53bc 7afe 14be 8ccc 0d3e 3055 0bbe
00000340: 6f29 7b3d cb22 343e 0da3 973e d334 a83c
00000350: c08f 9fbe e53b 8d3e 63cd 373d b6f9 4c3e
00000360: f0b5 413e 725c 863c b274 c2bc 690f fdbc
00000370: 4a45 273e e30b 573e 72c5 dbbd e0cf 2e3e
00000380: 2076 3ebd 722b 57be 55b8 d13d d61e 58be
00000390: 77c1 4abe 216a 933d 4cc3 ca3b 4e6a 39bd
000003a0: 3966 373e f3dd 42be 874d e6bd 531e 8f3c
000003b0: eb23 3b3e 424b d73d da10 6bbe bf56 173d
000003c0: 7f70 d63d 19e6 5bbd b44b 04be 2cbc 6fbe
000003d0: 9510 00be fe89 3f3d 9d69 cf3e a1d3 d83d
000003e0: 3e77 c43d 25dd 6a3e 1079 7ebe 075a 233e
000003f0: 0319 d8bd 00aa 2cbc 3e7d 4b3e eb7c 1a3d
0.25516847 -0.22989975 -0.019155325 -0.029337777 -0.09136354 -0.14385733 0.41130126 0.0646183
0.14603613 -0.25055066 -0.2632372 0.0016060298 -0.06088845 0.12311167 -6.65256e-05 0.113705344
0.13091782 -0.07834064 0.06510191 -0.091099314 0.02049389 -0.07424373 0.11278868 0.09513653
-0.21029086 0.17104924 -0.001725716 0.20802402 -0.03518507 0.15474008 0.058740463 0.099218406
-0.1319007 -0.056090657 0.13183269 0.04418137 0.27074087 0.007084905 0.064012304 -0.11456967
0.06864894 -0.14414668 -0.2267888 -0.039547943 -0.16562898 -0.28067917 0.06553829 0.2585723
-0.21408397 -0.10238139 -0.18709424 -0.11547793 -0.11326387 -0.096298024 0.19776256 0.15012386
0.20444724 -0.007718887 0.053590633 -0.010532606 0.05517385 0.022650931 0.06452083 -0.14169385
0.021689406 -0.13090417 -0.13860653 -0.23083784 0.09673978 0.0059498446 -0.052590758 0.055836603
0.26328546 0.12004596 -0.15775955 -0.014208593 0.040568274 -0.22286323 0.20229053 0.009354508
-0.017259486 0.22025307 0.12387509 0.18812297 -0.098068 0.18147229 0.049061745 0.21680842
0.20483944 -0.23287115 -0.11049734 -0.19072643 0.022924606 0.21318805 -0.1731148 -0.15812276
0.16212046 0.12889235 0.11042358 0.1503445 0.032203738 0.061911907 -0.16868629 -0.119440146
0.15309082 -0.11719317 0.18354292 -0.045247916 -0.13647924 0.00048600565 -0.08341411 0.13461402
0.08504292 0.060363304 -0.0395122 0.04118846 0.11679936 0.10080028 0.17697278 0.029584482
0.011498384 -0.12536076 0.010235079 0.20788501 0.1280589 0.17885454 0.02836085 0.15524653
0.13814965 -0.11070562 0.100428864 -0.21810527 -0.031092532 -0.110435225 0.0654493 0.098974735
0.12205121 0.17016485 -0.10973782 -0.15892988 0.17158349 0.1540539 -0.122603856 -0.06323896
0.1249515 0.05101222 -0.18444271 0.13465086 -0.18336944 -0.082507655 -0.090015635 -0.026541296
-0.288732 -0.045818392 -0.04149464 0.19154842 -0.22569059 0.22596261 0.15569551 -0.032508474
-0.08602861 0.046434287 -0.15840225 -0.088247605 0.18052071 0.27096173 0.106929116 0.16704126
0.06478306 0.093745604 0.17319138 -0.18853542 -0.030285316 -0.10348783 0.20362253 0.21890455
-0.065548986 -0.22392444 -0.011800601 -0.18468265 -0.18851982 0.22572315 -0.076740995 -0.069730386
-0.09842674 0.23625007 0.19454828 -0.05455835 0.009286314 0.09173649 -0.11597619 0.046880733
0.27500793 0.08056262 -0.17249238 -0.07358958 -0.04449198 0.07143682 0.1098105 -0.035155263
-0.1003938 0.17625046 -0.085253686 -0.22174925 -0.012886959 -0.145502 0.1384756 -0.13606715
0.06131881 0.17591397 0.29616585 0.020533001 -0.3116436 0.27584758 0.044873606 0.20017132
0.1891706 0.016401503 -0.023737285 -0.030891137 0.16335025 0.21000628 -0.10731019 0.17071486
-0.04649937 -0.21012667 0.10240237 -0.21105513 -0.19800363 0.07197977 0.006187832 -0.045267396
0.17910089 -0.1902998 -0.11245256 0.017470514 0.1827542 0.10512401 -0.22955647 0.036947962
0.10470676 -0.053686235 -0.12919503 -0.23411626 -0.12506326 0.04676246 0.40510264 0.1058724
0.09593056 0.22935922 -0.24850869 0.15952311 -0.105516456 -0.010538578 0.19871995 0.037716787

blocks.0.affine.adaptor.bias f4 [64]
00000000: f1b2 04be c2a1 713d b787 0abe b9d4 753d
00000010: 2d2b 82bd f0cd 0d3e 3b0a 333e 9035 d2bd
00000020: 4f2d 40be 26d1 343e 509f 633e 7a01 453e
00000030: 1bf3 2d3e cc42 613c 199d bd3d 247a 2dbe
00000040: 54b1 313e 75f9 30be 2771 ec3d 0987 d9bd
00000050: 6818 883e 119f dcbd 64ee 2c3e c5a0 193e
00000060: 9e7c b13d 3eb3 dabd 8b7e 633d 9f98 e03d
00000070: 2e35 313d e90f d1bb 7e73 75bd 412c 0c3e
00000080: 96ed 333e f4d5 463e 3bf6 34bd 6cbe 52bd
00000090: 261b 4e3d 6452 8fbe 666a 103e ab21 d4be
000000a0: fd6c 3ebe 793e 76bb 1eee 33be 4e85 c2bd
000000b0: d1be 14be 089f 45bd 4121 c13d 9b0a 173e
000000c0: bad6 90bc b495 45bd d2ec 113e c910 b4bd
000000d0: 13f4 0abc fbb9 6fbe 578d 07be 0ac4 42bd
000000e0: 72e6 893e d26a 1ebe 46c5 283d ec62 4dbe
000000f0: baee cd3f 4533 70bd f5c4 133e 743e c43d
-0.12958886 0.058992155 -0.13528334 0.06001732 -0.063558914 0.1384809 0.17484371 -0.102641225
-0.18767284 0.17657909 0.22228742 0.19238845 0.16987269 0.013748836 0.092584796 -0.16941124
0.17352802 -0.1728266 0.115450196 -0.10621459 0.2658112 -0.10772527 0.16887814 0.15002735
0.08666347 -0.10678719 0.055540603 0.1096661 0.043263607 -0.0063800705 -0.059924595 0.13688757
0.175711 0.19417554 -0.044180136 -0.05145113 0.05031886 -0.27992547 0.14103088 -0.41431937
-0.18596263 -0.0037573858 -0.17571303 -0.09498082 -0.14525916 -0.048247367 0.09430171 0.1475014
-0.017680515 -0.04823847 0.14250496 -0.08792264 -0.008481043 -0.2341079 -0.1323751 -0.04755024
0.26933628 -0.15470436 0.04120376 -0.20057267 1.6088479 -0.058642644 0.14430602 0.095822245

blocks.0.res.weight f4 [32, 1, 1]
00000000: 7321 93be 244f 043f d070 9abe aef5 4dbf
00000010: 09b9 313f 8da9 3c3f 07b8 873f 9c99 013f
00000020: 5217 55bf 213c 483e 4c4a 64bf 6623 73bf
00000030: ad81 a6be eb40 21bf 6c23 443f 8b6f 5cbf
00000040: 388c 8fbc a852 78bf 9753 a6bd 2b05 85be
00000050: 4815 683f 763e 11bf 04a3 003d 014f e6be
00000060: 242f 37bf 7f6c 64bf 57e7 9e3e fabf 1b3f
00000070: dd19 1f3f c325 223e a3eb 363f 516a f3be
-0.28736457 0.5168326 -0.30164194 -0.80453 0.69422966 0.73696214 1.0603036 0.50625014
-0.8323871 0.19554187 -0.8917587 -0.9497589 -0.3252081 -0.6298968 0.7661655 -0.861077
-0.017522916 -0.97001123 -0.08121412 -0.25980505 0.9065747 -0.5673593 0.031405464 -0.4498215
-0.71556306 -0.8922805 0.31035873 0.6083981 0.6214884 0.15834717 0.71453303 -0.4754205

blocks.1.conv1.weight f4 [32, 32, 12]
00000000: eab6 1e3d 8d9d 2a3c 9266 773d 30fb 403d
00000010: 28ec 213c 35b2 d5bc 7b37 ef3c 1e54 f7bb
00000020: b488 abbd f312 edbd a610 53bd e012 303d
00000030: 8bcb 08bd a47d 203b 057a fcbc 8eb5 11bd
00000040: 6951 803d 9f3e 02bd 6478 aabb 06b7 d43d
00000050: 29ae 063e 0001 0d3d 8500 abbd 9d35 a7bd
00000060: 8833 28bd b21d e5bd 74e5 c8bd 77a9 c939
00000070: 4953 1a3d eb88 943d 1da9 b03d 46d6 9e3d
00000080: b123 833c 53b3 123c 7b63 193d 6606 e33d
00000090: 158a 983c 6645 143d 80cd 01bc be86 ebbc
000000a0: 07ac 293c 51ec 21bd 3053 e03c 765b 1ebc
000000b0: a6e9 803d 73c0 a73d 76b6 383d f797 2ebb
000000c0: 095c 35bc 78da 6c3d 4537 e03d b0c3 073e
000000d0: fff8 6a3e 40ae 6b3e 8a38 893d 4622 8c3d
000000e0: 7196 80bb 5072 ef3b b279 e83c 563a 833d
000000f0: 2cc7 483d 582d 49bd ca31 cf3c 6d5f 02bb
00000100: 07a6 ca3a a0a9 6f3c 9e65 1d3b 1b18 8c3c
00000110: 7b03 b4bd 2a27 5fbc db6e 483c ec85 4bbd
00000120: b5a6 bebc 8681 f1bc e0fc 453e 81d2 7c3e
00000130: 6623 f83d 9710 4f3d a9cb 3d3d 467b ae3d
00000140: 0a7b a33d 2574 b93d 2f0c cf3d 5bea c53c
00000150: ee66 ce3c e0f2 21bc 51e0 91bc e250 ee3c
00000160: 90a1 4d3d 3765 843b 0f7e 403d f0ee e83d
00000170: 89a3 163d bcda 353d 483f b23d 9f56 b03c
00000180: e1ff 73bd 6f77 1bbd 607a 0e3b 47ab 743d
00000190: 1478 c23c 720f c13c c820 cd3b 17f7 3abd
000001a0: 0382 d8bc ef22 323c e91d 99bc ce56 113d
000001b0: c109 e23d 29c0 943d bf7c d3bc f03a f7bc
000001c0: ee8a 073d eb76 c33d aaf0 813e be3c 043e
000001d0: e225 8a3d d415 d23b 988c edbc bda1 113d
000001e0: b6c0 b2bd 60db 6cbd 8aa6 e8bb 7128 c6bc
000001f0: 24cf b5bc 830d 85bd aa13 5cbd d45c 90bc
00000200: 7345 c53d b99c df3d 6246 e63c f7dd 0c3d
00000210: 49c5 14bb 8955 88bd e4a5 883d 3a9c 26bc
00000220: 42b6 883d 02c6 c5bb 0af6 33b9 640d 8ebd
00000230: 0fa6 b83c 8045 903d 1b63 4a3c dc5a 34bc
00000240: 0050 cbbc 4148 c23c e0b6 4dbc fa2e 86bd
00000250: 83a1 2ebb 56ca 90bc a382 023d 6692 d43d
00000260: 0153 3f3d 5cfa e63c abbb 3d3c e6d9 073d
00000270: a771 55bd 19c2 11bd ba3e 383c 543b 59bd
00000280: db6a d13c 1fb4 cf3c ebef 71bd 1d93 fcbd
00000290: ea46 b1bd 4dc3 babd bf3a 38be 70e5 9ebd
000002a0: 9d1d 993d f6b3 8f3c 5260 01bd d754 53bd
000002b0: be48 d4bc 69fa 0ebc ee33 14bd 3d07 f8bc
000002c0: f65c e9bd 3821 40bc 8f6c abbd 8e83 ffbc
000002d0: a3ba 2dbd 1bb8 95bd 6186 89bd 9543 1b3d
000002e0: 6c20 fa3d 914a 063c cbd2 35bd 1d74 4dbd
000002f0: 39e2 2f3c 84df 803d 4637 133e 8814 293e
00000300: 79da b43d fa05 833d a917 c1bd 8bc6 80bd
00000310: 9455 afbc 01fd e63b 3dde b73d 53e5 a63d
00000320: e60f 453d 4248 08be 766a b2bd 9ea2 23bd
00000330: 2525 0fbc dd4c 2abd c62d 3abe 7ea3 3abd
00000340: 542b acbd 979c 60bd 0ac5 953d 501d 9d3d
00000350: 2329 543d f1c9 573d 6e43 133d 23b3 083e
00000360: 54eb 13bd 286d 553d 0709 993d d057 243c
00000370: a1a0 55bd 90f0 16be 5a85 18be 95dc 23bd
00000380: ccbb a9ba 6dae c23d 944d 913d 3617 b9bb
00000390: dd1b e03d 09c9 01bd 6311 c6bc cc97 3a3c
000003a0: 4f0d 97bc ec72 743d 5591 9f3d 2dda 813d
000003b0: 7cda 62bd 93e6 943d 816b f53d 23fc 873d
000003c0: 7ad2 9e3d f98d 913c a002 d8bd 84e0 b1bc
000003d0: 838d 763d 43fd cc3d c904 323b bb0b ffbc
000003e0: 4876 61bc 6d0c 9a3c de17 0ebe 2d05 c5bc
000003f0: b6c3 c6bc 567c 9bbd 2185 b5bc 826f 55bd
0.03874866 0.01041354 0.060400553 0.04711455 0.009882964 -0.026085952 0.02920126 -0.0075478693
-0.083756834 -0.1157588 -0.05152955 0.04298675 -0.03339724 0.002448895 -0.030819902 -0.035573535
0.06265528 -0.031798 -0.00520234 0.103864715 0.13152374 0.03442478 -0.083497085 -0.08164523
-0.04106477 -0.111873046 -0.0980939 0.0003846397 0.037677083 0.072526775 0.08626006 0.07755713
0.01600823 0.008953887 0.037448388 0.11085205 0.01862053 0.036198996 -0.00792253 -0.028750774
0.010355956 -0.03953201 0.027383417 -0.009665361 0.06294565 0.08191004 0.045095883 -0.002664087
-0.011069306 0.057825536 0.10948042 0.13258243 0.22946547 0.2301569 0.06700237 0.06842475
-0.003924184 0.0073073283 0.028378341 0.06407611 0.04901807 -0.04911551 0.025292296 -0.0019893304
0.0015460857 0.014627844 0.0024016867 0.017101338 -0.08789726 -0.013620177 0.012233461 -0.049688265
-0.023272851 -0.029480707 0.19334745 0.24689676 0.12116127 0.05055293 0.046336804 0.08519606
0.07982452 0.09055356 0.10109746 0.024159601 0.025195565 -0.009884566 -0.017807158 0.029091302
0.050202906 0.004040386 0.04699522 0.11373699 0.036777053 0.044398054 0.08703476 0.02152568
-0.059570197 -0.037955698 0.0021740422 0.059733655 0.023738898 0.023566935 0.0062600113 -0.0456458
-0.026429182 0.010872587 -0.01869102 0.035483174 0.11037017 0.07263214 -0.02581632 -0.03017947
0.033091478 0.09544166 0.25378925 0.12913796 0.06745507 0.0064112935 -0.028997704 0.035554636
-0.08728163 -0.0578264 -0.007099931 -0.024189206 -0.022193499 -0.06496718 -0.05372969 -0.017622389
0.09632387 0.10918564 0.028109733 0.03439137 -0.00227006 -0.066569395 0.06672266 -0.010169083
0.06675388 -0.0060355673 -0.00017162427 -0.06936148 0.02254012 0.07044506 0.01235273 -0.011007991
-0.02481842 0.023716094 -0.012555808 -0.06551929 -0.0026646561 -0.017674606 0.031862866 0.10379486
0.046710018 0.028195553 0.011580388 0.03316679 -0.05211034 -0.035585497 0.011245424 -0.053035095
0.025563648 0.025354443 -0.059066694 -0.12332747 -0.08656104 -0.09119282 -0.1799116 -0.077586055
0.074763514 0.017541867 -0.031586 -0.05159458 -0.025913592 -0.008726695 -0.036182337 -0.030276889
-0.11394684 -0.01172667 -0.08370315 -0.03119066 -0.04241432 -0.07310506 -0.06715084 0.037906248
0.12213215 0.008196489 -0.04439048 -0.050159562 0.010735088 0.06292632 0.14376554 0.16511738
0.08830733 0.06397624 -0.09428341 -0.06287869 -0.021403112 0.0070492034 0.089779355 0.08149209
0.048110865 -0.13308814 -0.08711712 -0.039950006 -0.008736883 -0.04157721 -0.18181524 -0.045566075
-0.08406702 -0.054836836 0.07312973 0.076716065 0.051797044 0.05268282 0.035952978 0.13349585
-0.0361131 0.052106053 0.07472425 0.010030702 -0.05215514 -0.14740205 -0.1489462 -0.040005285
-0.0012949645 0.09505925 0.07094875 -0.005648519 0.109428145 -0.031685863 -0.024178213 0.01138873
-0.018438963 0.05967991 0.07791392 0.06340442 -0.055384144 0.07270541 0.11983395 0.06639888
0.07754989 0.017767893 -0.10547376 -0.021713503 0.06019355 0.10009243 0.0027163497 -0.031133523
-0.013761111 0.018804753 -0.13876292 -0.02405032 -0.024263244 -0.075920746 -0.022158207 -0.052108295

blocks.1.conv1.bias f4 [32]
00000000: b716 a13c 95c4 533d 8d27 05bd 38e2 863c
00000010: 97d8 e83c 11ca 7c3c ab75 f2bc 0d67 3b3d
00000020: e1d0 85bc ef4a 0f3d b7c3 8f3b ede4 853b
00000030: e035 17bd 347c 12bd aafd 0ebc 4450 7abd
00000040: 8781 abbc 8a59 033b 369b fe3c beb2 1f3c
00000050: 040e 2cbd c152 f93c 7ead cabc 9503 2e3d
00000060: df54 463d 096f 67bc 2bd0 b43c 50fe 3abc
00000070: ca75 253c fcd4 5d3d 9738 60bd 222f 89bc
0.019664152 0.051701147 -0.03250842 0.016465291 0.02842359 0.015429036 -0.029597124 0.045752574
-0.016334953 0.03498357 0.0043873447 0.004086128 -0.036916614 -0.03576298 -0.00872747 -0.061111704
-0.020935787 0.0020042383 0.03107987 0.009747205 -0.042005554 0.030434968 -0.02474093 0.042483885
0.048420783 -0.014125594 0.022071918 -0.011413172 0.010098884 0.054158196 -0.05474147 -0.016746107

blocks.1.affine.bn.running_mean f4 [32]
00000000: 8c13 9dbe 6b0e e7bd 4048 bf3d 8b9e 1dbe
00000010: 2e82 103f 6310 3bbf fee0 c5be 04f8 75bd
00000020: a729 21bf 7d06 d6be 364f b3be e39a bebd
00000030: 1caa a9be 0273 f33e d5d9 13bf 9564 12bf
00000040: dd2f a43e 6690 80bd 78bf 38bf 5fe7 8f3f
00000050: eaf1 b0be 5d22 05bf dd15 8f3f f76f e93d
00000060: 985a fe3d d3e4 343f c5bf 373f 3e23 bbbe
00000070: 4015 76be 8837 3c3f 0519 013f 3180 ecbe
-0.30678976 -0.11282047 0.093399525 -0.1539251 0.5644864 -0.7307188 -0.38648218 -0.06005098
-0.6295418 -0.41801825 -0.3502137 -0.09306886 -0.33137596 0.47548681 -0.5775426 -0.57184726
0.32067767 -0.06277542 -0.7216716 1.1242484 -0.34559566 -0.5200556 1.1178547 0.11398309
0.12419623 0.7066166 0.7177699 -0.36550325 -0.24031544 0.73522234 0.504288 -0.46191552

blocks.1.affine.bn.running_var f4 [32]
00000000: b118 a83c e23c 4a3d 3c7a 0c3e 08f2 e03c
00000010: c107 663d 1a87 2f3d 12c6 a33c ccb3 5e3d
00000020: ce33 633d 6c96 5c3d a87a 593d 8cf4 bc3d
00000030: be1b 1a3e 8f3e 2e3d 769e b03d 4aa4 aa3d
00000040: 24ed 513c 0a54 4d3d ae1c 283e d553 2f3e
00000050: cda7 1b3e 8c00 f13d 5bf8 263d 13b3 1d3d
00000060: 92a2 ac3d 8cb9 c43d dc5e 783e 7c23 b43d
00000070: a750 b33d 7a40 a03d 8cfd 4b3d 766c 903d
0.020519586 0.04937447 0.13718504 0.02745916 0.05615974 0.042853452 0.019991908 0.054370686
0.055469327 0.05385439 0.05309549 0.09226331 0.15049645 0.04254013 0.08623974 0.08332117
0.012812886 0.050128974 0.1641719 0.17121823 0.1520073 0.117676824 0.040764194 0.038500857
0.08429445 0.09605703 0.24254936 0.087958306 0.087556176 0.07824798 0.049802348 0.07051937

blocks.1.affine.adaptor.weight f4 [64, 16]
00000000: 72a6 653e 84c5 923a 95c9 fe3d 8388 f03d
00000010: e436 383c d7a1 94be 4af8 afbe 76dd 863d
00000020: 8ef2 03be 3c79 ac3b 33d9 24be 86c4 3dbd
00000030: dfc2 80bd b31a bc3d 65c8 99be 4315 11be
00000040: d3fd 3b3e 8eb8 f93d 53ae f63c 80da 45be
00000050: 1abd cdbd 02ac 193e cf22 07be 1f6a 4f3c
00000060: 94af 3f3d 7927 643e b676 1bbd 2612 42be
00000070: bf20 76bd 09df 363e 3df5 953d 6bc1 5d3e
00000080: 1d18 103e 5ebd f1bd 8255 373e 1eaa d0bd
00000090: 4710 56bd ed0b 6abd 62e7 cabd ebc6 243e
000000a0: 1799 cabd 5161 dfbd 5436 2ebd 6813 183e
000000b0: 2586 173e 0b30 34be 66f2 23be b7b0 84bd
000000c0: efad 793d f6f4 22be 4a50 e0bd a310 e4bd
000000d0: 3d34 ba3e f963 a9bc df07 ae3e 048d 273d
000000e0: 4b89 0fbe 6ff8 58be 7d1a d53d abe9 7f3d
000000f0: 9bce c63d 6372 43be c17a 6f3e 7dc8 473d
00000100: 9d12 16be 2f56 e13c 5fe0 6a3e ffb4 513e
00000110: 90a8 9ebd a81d 8b3e 3779 513e 8da2 2a3e
00000120: 786c a9be 3e2b 893e 7e40 823e 0385 b23d
00000130: 8508 a4be 7a8f 723c b294 633e a5d9 9e3e
00000140: 4fc7 283e a421 033c 5223 21be 9b9f a63c
00000150: 605c 533e a7c3 dc3d f2f9 4ebc e770 ab3d
00000160: c225 47be 02f1 703d 61f4 f2bc 234e 22be
00000170: e16a b8bd 698e 45bd 2538 403d 0c57 653c
00000180: 4c17 b33e 7e90 b1bb 42e3 e5be 6efd e53c
00000190: 4fef 1ebe c06e 94be eeca 093e ea3e 0b3f
000001a0: e919 303e 98a9 b8bd d206 0ebf df1b fa3a
000001b0: 04bb 07be 9d27 9b3c bb81 27be 74c1 03bc
000001c0: 01f4 d7bd 2f1d 5f3d e4c1 6fbd 2e7f 9fbb
000001d0: e65a 273e e030 19bd 6fa0 a7bb a697 acbc
000001e0: 53bd 293e 60a4 36be d068 cfbd 39b9 a53d
000001f0: 1a32 083e 2db3 133e ee28 c83d 4136 963d
00000200: 564c 593d 267e 68be 6b69 ce3d adb9 68be
00000210: 1cd0 a7bc f200 3d3c 4412 85be 32c7 abbe
00000220: d1b0 0f3e 3a8d 5bbe 2059 7a3d 1349 dc3d
00000230: 09af 98bc 189d ec3d de0c 573e 8bf1 63be
00000240: 522b 91be a741 04bd 72f0 943d 2901 0c3e
00000250: a159 b23d a892 d63c a3b2 4b3c 9d80 163e
00000260: 98fa 463d 83e2 6abd 5b46 433e 6d73 cdbd
00000270: f25c 8a3c fbe0 37be d74d 2abe 1f8c 08be
00000280: 7b5f 853d 7b08 5bbe 753a aa3d e581 b13d
00000290: 7cb5 2f3c 6849 3c3d 126f d8bd 9b1c df3d
000002a0: 3ef0 7dbe 9b86 34bd a06f 4e3e 3f84 ce3d
000002b0: 3644 b6bd 4fd9 3bbb feca 233e 48c7 23be
000002c0: 0384 17bb ce55 41be a0ce 45bd b6bf 46bd
000002d0: c2b3 7ebe b78d 41bd 0a21 423e bfab 403d
000002e0: c9af 163e 0127 ca3d e3e2 1fbe 74ef 623e
000002f0: f9d9 f83c a7b3 5ebe 6758 3d3c d4b1 07be
00000300: 258b a83c 4b4f f8bd 24fd ec3c 3679 94be
00000310: f983 77bd 6ce1 083e 5775 3abd 716e 723e
00000320: 3d4c cfbc b1b0 21be 4cb7 31be 49bb 71be
00000330: 2482 8abd c0be 1c3c de41 88bc ff01 41be
00000340: 7210 f73d 13a5 5bbe 82b7 1fbe c7f1 d6bd
00000350: 93c3 023e a995 4f3e 5473 0c3e 9eac 83bd
00000360: 2b43 3a3e 9c4c 3fbe c577 c13c 3029 e83d
00000370: cb37 183d e8b6 f8bc 12ea ffbd d254 0d3e
00000380: dd74 66be aca1 0bbe 367a 0abd df2a 193e
00000390: c9b3 653e 3dd8 d5bd 0195 22be f823 113e
000003a0: c29d 6ebe 72b0 2ebe eeef e3bd e243 0a3d
000003b0: cde3 b8ba c82c 7a3e 5fc7 4cbe c3d6 053e
000003c0: bd57 023d 15fd 2e3d 86c1 1fbe 22f4 02be
000003d0: 1708 29be 029e bf3c 4e95 473e 01c4 b93d
000003e0: 7484 8bbd b6c6 2e3e 45dc 9bbd cc1a 38bd
000003f0: 191c 13be 7a56 77be 448f 65be b2b7 ffbd
0.22426775 0.001119778 0.124407925 0.117447875 0.011243556 -0.29029724 -0.34369117 0.06585209
-0.12885496 0.0052634757 -0.1609848 -0.046329997 -0.06287169 0.0918478 -0.300357 -0.14168267
0.18358545 0.12193404 0.030112421 -0.19321632 -0.10045834 0.15007022 -0.13196872 0.012659579
0.046798304 0.22280683 -0.03795501 -0.18952236 -0.060089823 0.17858519 0.07322166 0.21655814
0.14071698 -0.11803697 0.17903712 -0.10188697 -0.052261617 -0.05714028 -0.09907414 0.16091506
-0.09892481 -0.109072335 -0.04253228 0.14851153 0.14797266 -0.17596452 -0.16010436 -0.06479018
0.06095689 -0.15913758 -0.10952814 -0.11135986 0.3636798 -0.020677553 0.3399038 0.040905967
-0.14017217 -0.2118852 0.10405443 0.062478703 0.097073756 -0.19086604 0.2338667 0.048775185
-0.14655538 0.027506916 0.22937153 0.20479201 -0.077469945 0.27171063 0.20456396 0.1666357
-0.33090568 0.26790804 0.2543983 0.08716776 -0.3203775 0.014804715 0.22224692 0.31025425
0.1648228 0.008003626 -0.1573613 0.020339778 0.20640707 0.10779505 -0.012632834 0.08371144
-0.19447997 0.058823593 -0.029657545 -0.1585012 -0.090047605 -0.048231516 0.046928544 0.013997804
0.34978712 -0.005418836 -0.44899946 0.028074946 -0.15520976 -0.28990746 0.13456318 0.54392874
0.17197384 -0.090167224 -0.55479157 0.0019081793 -0.13254935 0.018939788 -0.16358082 -0.008041728
-0.10544587 0.05447119 -0.058534518 -0.004867456 0.16343269 -0.037400126 -0.0051155607 -0.021068405
0.16576128 -0.17836142 -0.10127413 0.08091969 0.13300362 0.14423819 0.09773432 0.07334567
0.053051315 -0.22704372 0.10078701 -0.2272708 -0.020484976 0.01153587 -0.25990498 -0.3355041
0.14032294 -0.21440592 0.061120152 0.10756125 -0.01863815 0.11553401 0.21001002 -0.2226011
-0.28353363 -0.032289173 0.07272424 0.13672318 0.087085016 0.026192978 0.012432727 0.146975
0.04857883 -0.057344925 0.19069807 -0.10031781 0.016890023 -0.17956917 -0.16631256 -0.13334702
0.06512352 -0.21389954 0.08311931 0.086673535 0.010724422 0.045968443 -0.1056806 0.10894128
-0.24798676 -0.044073682 0.20159769 0.10083818 -0.08899729 -0.0028663462 0.15995404 -0.15993989
-0.0023119457 -0.18880388 -0.048292756 -0.048522674 -0.2487326 -0.04725429 0.18957916 0.04703879
0.14715494 0.09870721 -0.15613894 0.22161657 0.030377375 -0.2174822 0.011556721 -0.1325143
0.020574162 -0.12124499 0.0289293 -0.28998727 -0.060428593 0.13367242 -0.04552206 0.23674943
-0.025304908 -0.15790059 -0.17355078 -0.236066 -0.067631036 0.009566963 -0.01663297 -0.18848418
0.120636836 -0.2144969 -0.15597346 -0.10495334 0.12769918 0.20271935 0.13715869 -0.064294085
0.18189685 -0.18681568 0.02361668 0.11335981 0.037162583 -0.030360654 -0.12495817 0.13801888
-0.22505517 -0.13635892 -0.033807956 0.1495776 0.22431864 -0.10441635 -0.15877153 0.14173877
-0.23302367 -0.17059496 -0.11129747 0.033756144 -0.0014105976 0.24431145 -0.19997929 0.13070206
0.031821955 0.042721827 -0.15601167 -0.12788442 -0.16506992 0.023390774 0.19490549 0.09070588
-0.06812373 0.1706799 -0.076103725 -0.04494743 -0.14366187 -0.24154082 -0.22417933 -0.12486209

blocks.1.affine.adaptor.bias f4 [64]
00000000: bbde 6a3d 3210 843e 232f cabd 20ba 4abe
00000010: 7a75 22be 817a 393d ff67 b0bd 3915 fdbc
00000020: 5691 5a3e 6a0b 40be a6f5 293e cd1c f63d
00000030: 0abc 08be 241b 6ebe e966 883d 7a41 0bbe
00000040: 94de 54be f305 a03c 36f9 f93d 6ae6 193e
00000050: 54e4 e53d 0baf 423e 46a0 edbb 662d 4d3e
00000060: 5635 773e fe82 113d 31d5 423e fdf7 1e3e
00000070: 3b80 86be 7130 66bd 7cee 873d 7984 d3bd
00000080: b1de 1b3f 91b0 20be 7dd5 f13d a45c 33be
00000090: 82ed 9a3e 936c b43e 95a3 a2bc a653 e33d
000000a0: a817 0abe 020e 6c3e b436 81bd c535 a73e
000000b0: 4f18 123d 28e0 e3bd 5c1a a13e 0012 963e
000000c0: 8120 1f3f 394b 8c3e f3d1 763e be9d 2ebe
000000d0: 345c 57bc ae74 c1ba 477c 38bf 921d 8bbd
000000e0: cadc 543e 39f2 afbd d72f 3cbe 529e 8dbd
000000f0: 67a4 073e 29ba 333d d94a 3fbe b671 8f3d
0.05734132 0.25793606 -0.09872272 -0.19797564 -0.15865126 0.045282844 -0.08613586 -0.030893909
0.21344504 -0.18754354 0.16597614 0.12017212 -0.13352981 -0.23252541 0.066602536 -0.13599196
-0.20788032 0.019534087 0.12205736 0.15029302 0.11225191 0.19012086 -0.007251772 0.2003685
0.2414144 0.035525315 0.19026639 0.15524288 -0.26269707 -0.05619854 0.06637284 -0.103280015
0.60886675 -0.15692355 0.11808298 -0.17515808 0.3025933 0.35239086 -0.019853393 0.11099939
-0.13485587 0.23052219 -0.06309262 0.3265821 0.035667714 -0.11126739 0.31465423 0.29310608
0.6215897 0.2740114 0.24103527 -0.17052361 -0.0131445415 -0.0014759505 -0.7206463 -0.067927495
0.2078735 -0.08591122 -0.18377624 -0.06914963 0.13246308 0.043878708 -0.18680896 0.070041105
